models/model.pth (torch, 378536 bytes, 8 tensors)

conv1.weight f4 [32, 1, 3, 3]
00000000: abe5 e73d fff9 f6bd 57c1 98be 694a ce3c
00000010: ca3d ae3e f564 c7be b2df a9be c3d8 963e
00000020: e828 213e 3b1f c7be 2334 053e d81f 473e
00000030: eb31 ecbe 5c80 a43d 8a5c d03e 7c9f 01be
00000040: 16c1 48be 096e 983e 4ab0 3ebe 4c3d 893e
00000050: 96f0 b6be 64ad 263e 6620 c93e 7167 88be
00000060: 5de1 cbbe 21fd 6a3e 0c8e 5e3e 83dc 6f3e
00000070: c37c 85be d667 6fbe ba0a d73c dd28 cdbe
00000080: 87f2 cc3d cb07 83be f37a 723e c012 a23e
00000090: a99d 70be c1b9 97be e823 f03d 078e a83d
000000a0: 4908 83be 41af 90be e7d0 bcbe 40b9 1ebe
000000b0: 4713 ddbd 5518 513e 4ab2 e33e d210 8f3e
000000c0: b44a 81be cba9 673e 7f7b 4fbd 97d8 bfbe
000000d0: bfd7 20bf 9671 07bf ee13 32be 9b81 3dbe
000000e0: 7907 31bd 0e4a d43d 4de6 4b3e 0560 a6bc
000000f0: 3478 83be 70c0 6f3d b4ab e23c 64bf 7c3d
00000100: a67d 4c3e 58ad 17be 48c1 fb3d 40d7 8a3e
00000110: 661e 633c ccab 0cbf 99bc 63bd b902 843e
00000120: 9227 84be 2ae9 c5be 6c69 43be 1b42 133e
00000130: d688 a3bd 6141 d5be d8a8 533e d960 a73e
00000140: 2228 ecbe 5d00 cebd d039 b93e 6f82 89be
00000150: f2de d1be 5db9 1dbf f515 45bf c0c8 febc
00000160: 0d72 10be 2213 e23e 047a 2a3d 581e d63d
00000170: d6f8 1e3f b65f 4fbe b38e 9dbe c4b6 0c3c
00000180: 90ef b3be fce9 8ebd 3321 d9be de71 dabd
00000190: 1b75 eebe 6d14 94be 3097 f83d 560d 513e
000001a0: aa72 0abe 2c6b b03e 964c cd3d 1108 153e
000001b0: f57f 643e 9314 383e 9291 d8be 1cf4 c83e
000001c0: f29d ffbc 3b69 21bf 7fdb edbe 81d9 19bf
000001d0: 8026 25be bb3f bcbc f8e6 083e 77e8 573c
000001e0: 2aa0 a53e 401e 963d a612 20be 00bd 5d3e
000001f0: 18a5 14bc da41 15bf fe61 a33d 60e3 09bd
00000200: dc55 e4be a3db 553c 07bb 5ebe c918 d3bc
00000210: 78d7 813e 3e25 653e 480c a23e 8e68 dabd
00000220: 3ad5 c7be 1da8 08bf a173 29be fd5a 8abe
00000230: f742 f7bd 608f ccbd de0c f1be 052e f3bd
00000240: 1c99 033e 961f 8ebd c709 b9bd 85c7 adbd
00000250: ddec bc3d dbce 443e 2333 443e fa06 823d
00000260: dfe5 42be ccce 4d3e 1dee 893e 13ec f8be
00000270: b84a 953e b277 c93d b580 0fbf 561b fc3e
00000280: 5d86 81be 8713 06bf cb7c 8abe 08a7 d43d
00000290: db78 c33d 92b1 1c3e f3d3 c13d 9178 1dbd
000002a0: 7c01 333c 1b64 33be e262 37be 7ee8 d03d
000002b0: 500c 273e 1d63 afbe 7589 bcbc 63bd e23e
000002c0: 01ca d6be ee97 64be 3492 423e 5277 49bd
000002d0: aad2 9abe 5c12 e0bd ef38 913b 744f 5a3e
000002e0: 4ef3 773d 4aec a03d c205 b63d 32c2 bfbe
000002f0: fdb2 a73d 5468 00bf 5720 0dbf 3158 07bd
00000300: 72f4 43be 5333 133e d060 4ebc 5a8d 8a3e
00000310: 0949 dc3e faaf 0c3f 0ad5 02be aa60 073e
00000320: 3ec1 8e3d 00ec 8a3d e6c4 8cbe 1f4a 6c3e
00000330: 907f c2bd 0744 aa3d 29a1 8b3d 5595 1e3e
00000340: 8621 38be b2ff f1be 5241 cfbe 10e2 15be
00000350: 73dd 04be 63be 95bc 8d67 3e3e dcc1 f73e
00000360: ad9b 0ebe 47bc 813e 82e9 c2be 5b8b 64be
00000370: b8ac d23e 9bb8 60be 941a d4be cbfd 4e3e
00000380: 5266 913e e73b a43d 7f7d 863c 356f dabd
00000390: 5d03 0abe 93ed d7be 996a f7be 1cc9 0e3f
000003a0: fb63 d03e a683 68bd f1eb adbe 1c5e df3d
000003b0: 2843 693e 2682 b0be fa6f f6be 469d 913e
000003c0: a41d 373e 4a88 d3be 0a84 fdbe 0af4 66bd
000003d0: 5f67 6f3e ead3 8ebe 5faa 133e a53e b4bd
000003e0: 373c 86bd c10c f23d 3732 83be abf7 f83d
000003f0: 6f1c dfbe 9679 d1bd 4794 02bf 6c9e d13e
0.113231026 -0.12059402 -0.29835007 0.025181966 0.34031516 -0.38944212 -0.33178478 0.2946225
0.15738261 -0.38891014 0.1300817 0.19445741 -0.46131834 0.08032295 0.40695602 -0.12658495
-0.19604906 0.2977145 -0.18621936 0.26804578 -0.35730428 0.16277081 0.3928253 -0.2664142
-0.39820376 0.22948124 0.21733874 0.23423962 -0.26071748 -0.23379454 0.026250232 -0.4007024
0.10007196 -0.25591883 0.23679714 0.3165493 -0.23497643 -0.29633906 0.117255986 0.082302146
-0.2559226 -0.28258708 -0.3687813 -0.15500355 -0.107946925 0.20419438 0.4447196 0.2794252
-0.25252306 0.22623365 -0.050654884 -0.37469932 -0.628292 -0.52907693 -0.17390415 -0.18506472
-0.043220017 0.10365687 0.19912072 -0.020309458 -0.25677645 0.058533132 0.027669765 0.06170596
0.19969806 -0.14812219 0.12292725 0.27117348 0.013862228 -0.5494964 -0.055599783 0.25783327
-0.2581144 -0.38654453 -0.19083184 0.14380686 -0.07985084 -0.41651443 0.20669878 0.32691076
-0.4612437 -0.10058663 0.3617692 -0.26857325 -0.40990406 -0.61610967 -0.7698663 -0.031101584
-0.14106007 0.44155222 0.04162027 0.10455006 0.62098444 -0.20251355 -0.30772933 0.008588497
-0.3514371 -0.06978223 -0.42408141 -0.1066625 -0.4657372 -0.28921834 0.12138212 0.20415244
-0.13520303 0.34456766 0.10024373 0.14553858 0.22314437 0.17976598 -0.4229856 0.3924874
-0.031203244 -0.63051194 -0.46456525 -0.6009751 -0.16127968 -0.022979608 0.13369358 0.0131779825
0.32348758 0.073299885 -0.15632114 0.21654129 -0.009072565 -0.58303607 0.07977675 -0.033664107
-0.44596756 0.013052854 -0.21751033 -0.025768654 0.25359702 0.22377488 0.31649995 -0.106644735
-0.39029866 -0.5338152 -0.16548015 -0.27022544 -0.120733194 -0.09988284 -0.4708013 -0.11874012
0.12851375 -0.06939618 -0.09035068 -0.08485321 0.092248656 0.19219534 0.19160132 0.06348987
-0.19033001 0.20098418 0.2693948 -0.4861761 0.29158568 0.09837283 -0.56055766 0.49239606
-0.25297824 -0.52373546 -0.27048334 0.10383421 0.09544536 0.15302113 0.09464254 -0.03844506
0.010925647 -0.17518656 -0.17908815 0.10200594 0.1631329 -0.34255305 -0.023014763 0.44285116
-0.41950992 -0.22323582 0.19001085 -0.04918606 -0.3023885 -0.10941002 0.004431836 0.21319371
0.060534768 0.078575686 0.08887817 -0.37452847 0.08188436 -0.5015919 -0.5512747 -0.03304309
-0.19136217 0.14375047 -0.012596324 0.27060968 0.4302447 0.5495602 -0.1277658 0.13220468
0.06970452 0.06783295 -0.27493972 0.2307515 -0.09496987 0.083137564 0.06817848 0.15486653
-0.17981538 -0.47265393 -0.40479523 -0.14637017 -0.12975101 -0.01827926 0.18594189 0.4839009
-0.13926573 0.25338957 -0.38068777 -0.22318785 0.411474 -0.21945421 -0.41426528 0.20214002
0.28398377 0.08019238 0.016417263 -0.10665742 -0.13477845 -0.42173442 -0.48323515 0.5577562
0.4070128 -0.056766175 -0.33969072 0.10906622 0.22779524 -0.34474295 -0.48132306 0.28440303
0.17882401 -0.41314918 -0.495148 -0.056385078 0.23379277 -0.27896053 0.1442046 -0.08801011
-0.06554454 0.11818839 -0.25624248 0.12156614 -0.4357638 -0.10228269 -0.51007503 0.4094118

conv1.bias f4 [32]
00000000: a1ec e8bd 1416 3abd 0258 b5be 4ae9 05be
00000010: 0d7e f83d e16a fe3d 1352 06be b19b f8be
00000020: 0144 68bb 846e b1bd 59e4 8abe 822e d1bd
00000030: e916 983e 39d7 90bd dff0 cfbd 140f 503e
00000040: 42b6 b1be e499 67be 323e 46bd ced6 dcbd
00000050: a6f4 d6bd b68b 70be a556 78be b93b e3bd
00000060: 91a2 99bd 55a9 e4bd 6482 a03d fca9 23bd
00000070: e083 51bd 613a 8fbe e2cf 80bd 0fe9 503d
-0.113732584 -0.04543121 -0.35418707 -0.13077274 0.12133417 0.12422729 -0.13117246 -0.48556283
-0.0035440924 -0.08663657 -0.2712734 -0.10213949 0.2970498 -0.070723005 -0.101533644 0.20318252
-0.34709364 -0.22617298 -0.048399158 -0.10783158 -0.10495882 -0.23490795 -0.24251802 -0.110953756
-0.0750171 -0.1116511 0.0783737 -0.03995703 -0.051151156 -0.27974227 -0.062896505 0.051003512

conv2.weight f4 [64, 32, 3, 3]
00000000: 1fdd 993c a4d6 c3bd 53be 1f3d a9c9 27be
00000010: 11c7 e0bc 6e03 a43d ae3c cf3d 3f07 5abe
00000020: a4cd bfbd bfbf 6d3c fc47 db3d f7bb 453d
00000030: 055b e43d f81c 143e bd2c 5abe 0cdb 833d
00000040: df07 343d 4a4f c3be 8182 d4bb cd0f 15bc
00000050: ffa4 9abd 8e99 08be 0d8b aebd 068b 663d
00000060: 1811 263d 5886 07be 9e77 12be 651b 65bc
00000070: 5728 033d 7762 45be a83c 263d bad1 49be
00000080: 7bbe 85bc 81d4 b73c c388 8dbd f45c 1dbe
00000090: 0cb2 fb3d a315 a2bc ddfb d3bc c64a 2b3d
000000a0: cc8a c4bd cac2 b7bd b39c a4bd a8ed 1bbe
000000b0: 52ec b53d 7b54 cf3c 5a8a 5fbe 65cc 25be
000000c0: b24f 5d3c c0a8 95bd 6f4d b9bd 4fb3 f5ba
000000d0: b224 b13b 6248 ea3d 430f 8fbd 4d76 053b
000000e0: b02e 853d 82ce 2fbd 2c1c 953c efc2 96bd
000000f0: 2db0 5abb 7459 d4bc 9f1f 76be 0920 183d
00000100: 9638 993b ac8a 3fbe 212e e5bd 6a62 6cbd
00000110: 2263 a4bc 4c9e 33bd fa16 17be 468d 51be
00000120: e705 d13d 8b1f e3bb d946 04be 0617 7d3c
00000130: dfbf 01bd 6856 273c 81bc 583d 06c9 7ebe
00000140: ccde b0bc 0219 c1bd 30c9 e43b 5127 54be
00000150: 1732 01bd b581 fdbd e535 7cbd 4491 263d
00000160: c853 863c 642f cebd 60b0 72bd e4f5 0fbe
00000170: 4b39 4ebe 5d3a 36bd 57e9 50be 0599 35be
00000180: 7b78 9abd ddc6 bfbd be24 bebd 23b1 2c3d
00000190: ae1e b3bd 0e04 01be c24e 003d 0689 e4bd
000001a0: 2d19 00be dbeb 11be 9728 f6be ed03 2bbe
000001b0: a6cd b2bb 07b2 aabd 41f0 8c3c 921e bbbd
000001c0: a5e6 07bd 8a3f dd3d 2cb6 833d 154c b93d
000001d0: bd7d 7c3e 72dd 98be 7e74 12be 9f96 0c3e
000001e0: 7a91 a6bd 7208 853c 0e16 573e c193 043d
000001f0: bae5 893d 0b93 8a3d a335 353d c6df 25bc
00000200: ec4a a9bd 934a edbb 084a 1abd e4fb a33c
00000210: d3bd 3fbe 2625 4fbe f1c1 69be 9f3a 4c3d
00000220: da95 00bc 8a81 83bd 8f9a 243c fadf 09bd
00000230: 7290 313b 7479 de3d 5405 183d 46a7 f23d
00000240: c29b 2ebe f367 0c3c a5a7 afbb 2a3b d1bc
00000250: b443 da3c 3e9d fe3c 3452 473d 9456 89bc
00000260: 24c0 9bbb b0df b0be 8865 3bbe f7a5 863e
00000270: 9fa6 54be 45ee 123d 120e 983e 1ebb b93d
00000280: f535 a03d bbe2 323e a3bd 50bd 7d80 8ebd
00000290: 74e4 9abd e3ab 56bd 369f aa3b 30c5 1e3c
000002a0: 35dd 1abc bdc6 953d bf2f 48be 2cf3 88be
000002b0: 1228 babd 0820 303e 8a2d 67be 718d 32bc
000002c0: 435f 303e 7297 703e a9ee f3bc 5139 253e
000002d0: 7f37 a43d 71d2 49bd d324 44bd 906a a03d
000002e0: d38c 533d f9dc 04be bbda 813d 6612 5f3d
000002f0: 5629 47be 2828 853d 16f6 dd3d 2c07 9dbd
00000300: 41d1 653d cd26 173d 5d52 acbe 5c48 c23d
00000310: b417 133d 8088 d2be 33b0 903d 103c c4ba
00000320: f0e7 903c 9186 f93c 47c0 603c dd94 37be
00000330: 84ee dd3c 0fd9 9d3c 25eb 1ebe baa3 d63d
00000340: 385a 56bc e86c 40be c15b 863b 6ed5 92bd
00000350: 79c2 54be 33ff 17be 0e2a 51bd d186 2fbe
00000360: f291 283d 80ca 713d 2ead 26be 5659 17bd
00000370: cb46 ae3c 5423 0fbe 1b90 9dbc 3a7b b2bd
00000380: d914 aebe 3bd8 87bd af35 05be 19f7 bc3c
00000390: 824d 613c 3f9b 39be 6dd8 ec3d 125c abbe
000003a0: 53d0 cdbd 1a9e f6bd 0d4e 753d fa8c 54bd
000003b0: 4d1f 143d 7b87 1bbe b969 51be 801f 2abe
000003c0: a06c e6bd ae26 09be 9765 cc3c a55f 10be
000003d0: c07e febd 21ba 793d 5a63 94bd fbcb 6abc
000003e0: 298c a13d 0095 b6bd 23ba 79ba ce59 4dbc
000003f0: fef6 a8bb c03f 16be f16c c5be 2093 2ebc
0.018782197 -0.09562424 0.038999867 -0.16385521 -0.027438672 0.08008467 0.101189956 -0.21291827
-0.09365395 0.014511048 0.10707089 0.04827496 0.11150173 0.14464176 -0.21306129 0.06438264
0.04395282 -0.3814643 -0.006485284 -0.0090980055 -0.07551002 -0.13339826 -0.085226156 0.056284927
0.040543646 -0.13234842 -0.14303443 -0.013983582 0.032020893 -0.19275843 0.04058519 -0.1970891
-0.01632618 0.022440197 -0.06910851 -0.1536749 0.12289819 -0.019785708 -0.025876934 0.041819356
-0.09596786 -0.089727 -0.080377005 -0.15227377 0.08882965 0.025308838 -0.2183012 -0.16191252
0.01350777 -0.07307577 -0.090479724 -0.0018745455 0.0054059858 0.11439587 -0.06985333 0.0020364702
0.065030456 -0.04292155 0.01820191 -0.073613994 -0.003336917 -0.02592156 -0.240355 0.037139926
0.004675935 -0.18705243 -0.11190439 -0.057711042 -0.020066801 -0.043852136 -0.14754859 -0.20464048
0.10206204 -0.0069312504 -0.12917651 0.015447384 -0.031677123 0.010213472 0.052914146 -0.24881372
-0.021590613 -0.09428598 0.006981991 -0.20718123 -0.03154191 -0.12378255 -0.061574835 0.04066588
0.016397372 -0.10067633 -0.059250236 -0.14058644 -0.20139043 -0.044489253 -0.20401512 -0.17734154
-0.07542511 -0.09364102 -0.09284352 0.04216112 -0.08746086 -0.12599203 0.03132511 -0.11158948
-0.12509604 -0.14250128 -0.48077843 -0.16700716 -0.005456644 -0.08334737 0.017204406 -0.0913669
-0.033178944 0.10803135 0.06431231 0.090477146 0.2465734 -0.2985645 -0.1430225 0.13729332
-0.08133216 0.016239379 0.21004507 0.03236747 0.0673327 0.067663275 0.044240605 -0.0101241525
-0.08266243 -0.007241556 -0.037668258 0.020017572 -0.18724756 -0.20229015 -0.22827889 0.049860593
-0.007848227 -0.06421192 0.010046615 -0.033660866 0.0027094153 0.10863009 0.037114456 0.11848311
-0.17051604 0.008569705 -0.005360561 -0.025540907 0.026643611 0.031080838 0.04866238 -0.016764916
-0.0047531296 -0.3454566 -0.1830045 0.26298496 -0.20766686 0.035871763 0.29698235 0.09068893
0.078227915 0.17469303 -0.0509621 -0.06958101 -0.07563105 -0.052410018 0.0052069677 0.009690568
-0.009452154 0.07313297 -0.19549464 -0.26748025 -0.09089674 0.17199719 -0.22575966 -0.01089798
0.1722384 0.23495272 -0.029776888 0.16135146 0.080183975 -0.04927296 -0.04788668 0.07832825
0.051647972 -0.1297492 0.06340548 0.054460905 -0.19449362 0.065018 0.10837953 -0.076673836
0.056107763 0.036902238 -0.33656588 0.09486458 0.035911277 -0.41119766 0.07064857 -0.0014971513
0.017688721 0.030459674 0.0137177175 -0.1792788 0.027091272 0.01926854 -0.15519388 0.10480447
-0.013083033 -0.18791544 0.0041002934 -0.07169615 -0.2077731 -0.14843445 -0.051065497 -0.17141272
0.04115481 0.05903101 -0.16277 -0.03695043 0.021273991 -0.1397832 -0.019233754 -0.0871491
-0.3400028 -0.066330396 -0.1300876 0.023067044 0.013751389 -0.18125628 0.115647174 -0.33468682
-0.100495 -0.12041874 0.05988889 -0.05189226 0.036162663 -0.151884 -0.20450486 -0.16613579
-0.11251187 -0.13393661 0.024950786 -0.14098985 -0.124265194 0.060968522 -0.07245512 -0.014330859
0.078880616 -0.08915138 -0.0009526333 -0.012533618 -0.005156397 -0.14672756 -0.38559678 -0.0106551945

conv2.bias f4 [64]
00000000: ec67 4abc ac08 883c 99ed 77bd f0aa aa3c
00000010: 5003 9f3c 34e3 a0bd ec90 e4bd cf7d 12bd
00000020: 272a 29bc 7e84 30bd 5d64 8bbd 9961 87bd
00000030: 45d4 2fbd 01fc 90bc dda8 9cbd e2d1 9fbd
00000040: 5828 23bd db84 64bd 7085 53bd 4bc5 89bd
00000050: 4173 24bc 4ee3 7ebd c5f5 5e3d b941 5ebd
00000060: 0102 ab3b 4429 613d fc62 b2bd 0583 c23c
00000070: 8ebc d7bc be5d 8b3c 3cfb 433c d9b7 44bd
00000080: 3cad 4dbd b3b4 1fbd d342 d03c cf68 85bd
00000090: aa58 9ebd 2dd6 94bd 032f 88bd ba38 e2bd
000000a0: 8571 4fbd 7dfe b3bd 8a99 b8bd fd1c 65bd
000000b0: 3941 e2ba 5d75 f33b ddd0 96bc 7d47 80bd
000000c0: cd2f e23c ab76 97bd e8ab 84bc 8602 c33c
000000d0: 9ed2 ecbc 827f 203c 2dd7 c9bc a111 3dbc
000000e0: abcd c4bd 60a7 4ebc 87c6 b3bc 37d6 c23b
000000f0: 0a69 2b3d cc18 4fbd ab59 c5bb 2f82 9bbd
-0.0123538785 0.016605698 -0.060529325 0.020833462 0.01941076 -0.078558356 -0.11160454 -0.03576451
-0.010324991 -0.043095104 -0.06806252 -0.06610412 -0.042927045 -0.01769829 -0.076493956 -0.07803704
-0.039833397 -0.055790763 -0.051640928 -0.06727084 -0.010037244 -0.062228493 0.054433603 -0.054261897
0.0052187447 0.054970995 -0.08710286 0.023744116 -0.026335027 0.017012473 0.011961754 -0.048026893
-0.050214037 -0.038990688 0.02542249 -0.06514131 -0.07731755 -0.07267413 -0.06649592 -0.11045976
-0.05064537 -0.08788774 -0.0901366 -0.05593585 -0.001726187 0.0074297623 -0.01841014 -0.06263635
0.027610684 -0.07395681 -0.016195253 0.023804914 -0.028909024 0.009796025 -0.024638737 -0.011539848
-0.096095406 -0.0126131475 -0.021945251 0.0059459466 0.04184822 -0.050560758 -0.006022652 -0.0759319

conv3.weight f4 [128, 64, 3, 3]
00000000: a670 07be 8382 ed3c b2a8 89be 5078 e23d
00000010: c9ea e63d 1ac8 54be 2e05 e93d 5a36 ffbd
00000020: fdf2 223d a233 553c a574 93bc e4b8 233b
00000030: c80d 9abd 32e2 1e3a 1ca9 663c 4602 6e3c
00000040: f81e a63d 6749 673d 6a4c 033e 24de 653d
00000050: 5624 febd eb60 09bd 813e 2d3d d60a 8bbd
00000060: 7c60 2fbe 3478 7fbd 4d26 743d cb58 85be
00000070: 1e14 3fbe 5599 943d 5fb5 d93d 65c0 1dbe
00000080: c83d 14bd a412 953c d5c8 8abc 1b0e a7bd
00000090: b4f1 be3d a049 2e3e 0c5e 913d 2bcf 4abd
000000a0: aade 203d 10c7 41be b81f 6bbd fe04 0dbe
000000b0: c5b4 20be a2d8 253d a593 413d 4500 b1bd
000000c0: 2431 dcbd 8495 7f3d b3d8 7bbd f4ab 3bbe
000000d0: b798 90bd 3cc8 c03d cc7a c63d bb0e 5b3d
000000e0: b370 853d 08d4 b53d 9041 ea3c 6e7f 0bbb
000000f0: 0248 273d 2d87 b4bc 6fae e1bd dadc 053d
00000100: 7f67 edbc d8f5 bbbc 7103 12bc fcb5 0cbd
00000110: 3510 963d 6ceb 4c3b ac87 83bd 8ed1 f63a
00000120: 8e60 c83c e483 24bd 3229 fb3d d3a8 14bd
00000130: cd48 1c3d 68d6 2c3e a817 3d3c b8b1 05bc
00000140: a4ae edbd 7575 bfbc acd1 c13d 1758 bf3d
00000150: 0cde 7b3d a30d 963d 2935 2abe 82aa 253d
00000160: 5d0e f93d 91b7 a53d e1b9 83bd 7a3a 573d
00000170: 40df c1bd 06fd 703d 25c7 abba 5a4b 25be
00000180: 9d43 5cbd 704d 69bd ce46 9c3d 6e1d dfbc
00000190: d46d 09bd 8ce8 c23d 2d1e 933d cd8f 5e3c
000001a0: 0536 57bd 982f 933d 5821 153e 1f48 53bb
000001b0: a969 22be 507b c4bd 0462 863d 830b 01be
000001c0: 907c 913d 342a 403d e385 51be 1431 63bd
000001d0: 4724 89bd 3a9c d03c c8a4 ac3d b6a2 fb3d
000001e0: 1090 e73d ea95 823d decf febd 762c 13bd
000001f0: f8ab 963d 3158 95be 19db 9c3d 38ca 423d
00000200: 3370 b33d ee76 dbbd 4525 12be 5d7c a0bd
00000210: 9932 94bd be19 febd c7e6 22be bf26 573d
00000220: 23ff 0ebb 3b51 8a3d 08f4 dc3c 5aa4 a73c
00000230: 784e 20bc 1635 82bc f2e3 873b 7a83 b43b
00000240: 61b6 223d 8ec2 993d bf84 2c3c 8055 fc3c
00000250: b8d9 de3d 34f3 c33d a1d7 2ebc 55b9 c13c
00000260: 8c2c 563c 9752 0bbd 7942 ac3b 807c ddbc
00000270: dd08 e4bc c005 c5bb da75 0abd d692 1c3a
00000280: f000 bc3c d712 de3c 41a4 e2bd 6d13 14be
00000290: 1789 f5bd 1e62 09bd ff75 dbbc 2ad9 ad3c
000002a0: 554a 56be 2d49 8d3c 6da4 253c 5745 043d
000002b0: 443b b9bc 5c4b 933d a16f 153e bf1a 063e
000002c0: dbd8 8dbd 7184 a33c b7c9 01bc ecfa 53be
000002d0: 4d1a b2bd 2385 86bd 1b31 b33d feb6 f03d
000002e0: 4892 8fbd 63d6 f83d 40dc 923d 63fd c3bd
000002f0: 7fcf 77bd fd4c 06bd 410b 1cbe d059 063d
00000300: e8d0 cebd 9a73 54be faf4 04be 9aa3 f8bd
00000310: b535 1dbe 0e08 83be ec4a ed3c d798 533d
00000320: 665d a0bb 8bb6 4fbd 9a40 723d 31ff 67bd
00000330: 8e59 373d d80c 423d b1dd 53bd 1f34 01bd
00000340: aa38 3e3d 3a45 973c 2b90 ca3c 50f0 753d
00000350: 5184 2c3d fb6a 57bb 8979 023d 35ee 563c
00000360: 6c7d a33c 0fe9 44be 6263 9bbe 2958 46bd
00000370: 98cc f4bc 1ad9 17be 1cb3 6139 c6c3 f93d
00000380: 16c3 43bd ea60 09be b830 32be 410a 753d
00000390: a298 abbd e82a 57bd 8fba f93d 5571 6b3d
000003a0: 130e 1e3d 41a6 91bd 3c49 303c 4f93 11bd
000003b0: 2810 a63b 0ddc 023d 299d 0f3d 8eb9 c0bc
000003c0: a174 25bb 7867 e8bc 597a 013d 3071 c23c
000003d0: 8c2b ec3c 70d6 dbbc e618 373d 9968 043d
000003e0: 8fd0 de3c e710 8b3c 25f6 aebc 7aab 36bd
000003f0: 5656 37be 3669 37be dcd2 12be fb11 c33d
-0.13226566 0.028992897 -0.26886517 0.11058104 0.112752505 -0.20779458 0.11377941 -0.124615386
0.039782513 0.0130127985 -0.017999956 0.002498203 -0.0752216 0.00060609274 0.014078405 0.014526909
0.081113756 0.056466486 0.12822118 0.056120053 -0.12409274 -0.033539694 0.042295936 -0.06789176
-0.1712665 -0.062370494 0.05960684 -0.26044306 -0.18660018 0.07255808 0.10630297 -0.15405424
-0.03619173 0.018197365 -0.016941467 -0.08156987 0.09323445 0.17020273 0.07098016 -0.049513977
0.03927485 -0.18923593 -0.057403296 -0.13771436 -0.15693958 0.0404898 0.047259945 -0.086426295
-0.1075156 0.06239845 -0.061485957 -0.18327314 -0.07060378 0.09413192 0.096913904 0.053480845
0.06515636 0.088783324 0.028595716 -0.002128567 0.040840156 -0.022037113 -0.11019599 0.032681324
-0.028980015 -0.022944376 -0.008911953 -0.03435324 0.0732731 0.0031268252 -0.06422362 0.0018830763
0.024460103 -0.040164843 0.12263717 -0.036293816 0.038155366 0.16878664 0.011541285 -0.008160047
-0.11605576 -0.023371438 0.0946382 0.09342974 0.061491057 0.0732682 -0.16621841 0.040445812
0.12160943 0.08091653 -0.06431938 0.052546002 -0.0946641 0.058835052 -0.0013105614 -0.16142026
-0.05377542 -0.056958616 0.076306924 -0.027235713 -0.033552006 0.09517011 0.0718349 0.013584089
-0.05254175 0.07186812 0.14563501 -0.0032239032 -0.15860619 -0.095938325 0.06561664 -0.12602048
0.071038365 0.046915248 -0.2046123 -0.055466726 -0.066963725 0.02546512 0.08429867 0.12286894
0.113067746 0.0637625 -0.12441991 -0.035931073 0.07357019 -0.29168847 0.07658977 0.047556132
0.08761635 -0.107160434 -0.1427203 -0.078362204 -0.07236213 -0.12407254 -0.15908347 0.052527186
-0.0021819554 0.06753775 0.026971832 0.020464111 -0.009784333 -0.015894454 0.0041470462 0.0055088373
0.03972471 0.075078115 0.010529696 0.030802488 0.1088137 0.09567872 -0.010671527 0.023647944
0.013072144 -0.03401431 0.0052569476 -0.027036905 -0.027836258 -0.0060126483 -0.0338038 0.0005972808
0.022949666 0.027108593 -0.11066485 -0.14460535 -0.119890384 -0.033540837 -0.026789663 0.021221716
-0.20926793 0.017246807 0.010110003 0.03229269 -0.022611268 0.07192108 0.14593364 0.1309614
-0.069261275 0.019960614 -0.007921628 -0.20701188 -0.08696423 -0.065683626 0.087496005 0.11753653
-0.07010323 0.12150266 0.071709156 -0.09569814 -0.060500618 -0.032788265 -0.15238668 0.032800496
-0.100984395 -0.20747223 -0.12984076 -0.121405795 -0.15352519 -0.25592083 0.02896639 0.05165943
-0.0048939465 -0.050711196 0.05914364 -0.056639854 0.04476314 0.04737553 -0.051725093 -0.031543847
0.046440758 0.018465627 0.024726948 0.060043633 0.042118374 -0.0032870162 0.031854186 0.013118316
0.019957267 -0.1922953 -0.3034926 -0.04842392 -0.029882714 -0.14828911 0.00021524396 0.12195544
-0.04779347 -0.13415876 -0.17401397 0.059824232 -0.08378722 -0.052531153 0.12193786 0.05748113
0.03858764 -0.071117885 0.010759648 -0.035540875 0.005067844 0.031948138 0.03506199 -0.02352598
-0.0025246518 -0.02836965 0.03161082 0.023735613 0.028829359 -0.02683565 0.04470148 0.032326315
0.027199058 0.016975833 -0.021357605 -0.044597127 -0.17904028 -0.17911229 -0.14338249 0.09524914

conv3.bias f4 [128]
00000000: c554 8cbd 113b 823d c335 703c acde 56bd
00000010: 9733 f5bc a21f 96bd 4b9e 82bb 612a ffbc
00000020: 38c0 14bd 7bcd eebd 559c eebd 12db 8c3c
00000030: 6fae 98bd 7bc1 7cbc 2c7a 31bd 4f88 74bd
00000040: b061 9fbd 1f3c 80bd 2e45 60bd 7a55 33bc
00000050: c7f3 68bd ae67 b0bd dc13 80bd bd11 5ebd
00000060: dff8 23bd a59c 9fbd f64a dcbd f889 0bbd
00000070: 51fa 96bc 7e39 893c 14b4 6bbd ed5d dc3a
00000080: 2bd7 1b3d 1a14 9ebd a7a2 92bb 439c 31bd
00000090: ec63 673c 309e 56bd 5885 32bc 9685 a6bd
000000a0: a9fd 8fbb 5942 86bd 46bd 2dbd abbc 31bd
000000b0: d142 45bd 0599 1dbd db31 ecbd 9266 87bc
000000c0: 7c30 72bd aed1 29bd 498c 4fbd ef81 aabc
000000d0: 53ca 37bd dc31 b2bc f8ad a23b f82e 193d
000000e0: 3873 0a3c 188d 80bc 83d4 e83c b017 b6ba
000000f0: 837e d1bd 2f27 a7bd c4fd f33b 56d0 ad3b
00000100: c829 babd e2f5 863c 1b51 2ebd 02cc 4ebd
00000110: b070 6bbd c6e4 66bc dde5 0ebd fe91 66bd
00000120: 5188 13bd 7ae1 40bd e4f1 d6bd ee4b c3bd
00000130: 87c2 f8bc 89c1 bc3c 4746 833b 591b d7bd
00000140: 84e8 54bd 773d 38bd 04e5 c5bc 1a69 3bbd
00000150: 2c0a 3cbd 746c f6bc a918 72bd 98a9 7e3c
00000160: 926d 4dbd d2fb 8ebb 39de 663a 0304 86bd
00000170: 2ee0 6e3a 7d12 6fbd b31d 38bd 77d7 7fbd
00000180: 4281 71bc a6af 7a39 ac34 77bd 25cf aabd
00000190: 2389 97bd 322a 12bd 24f7 ecbc 0aa2 1cbe
000001a0: b4e8 883c 4901 bebc bb81 873c bf23 4fbd
000001b0: 5024 1ebd 8b3e 2cbd 928d 0bbd 24b1 d0bc
000001c0: ff53 a9bc 739a 2fbd 7922 51bd 20bf 67bd
000001d0: b357 2dbd d321 e8bc 3293 8d39 6136 84bd
000001e0: ebb6 883b b93e 613c a8d0 72bd 25b7 66bc
000001f0: a08c dbbc 2bd5 9ebd 27dc f4bc f9f9 82bc
-0.06852106 0.06358922 0.014661255 -0.05245845 -0.029931827 -0.07330252 -0.003986155 -0.031148138
-0.036316127 -0.11660286 -0.11650912 0.017194305 -0.074551456 -0.015426989 -0.043329403 -0.059700307
-0.07782304 -0.06261467 -0.054753475 -0.010945672 -0.05687311 -0.08613525 -0.06253788 -0.054216135
-0.040032264 -0.077935494 -0.10756485 -0.034067124 -0.018429907 0.016751047 -0.057544783 0.001681266
0.038046997 -0.07718678 -0.004474956 -0.043361913 0.014122944 -0.052396953 -0.010896049 -0.08130948
-0.0043942523 -0.065556236 -0.042416833 -0.04339282 -0.048159424 -0.03847601 -0.11532947 -0.016528402
-0.05912827 -0.04145973 -0.050670896 -0.02081391 -0.044870686 -0.02175229 0.0049645863 0.03739831
0.008450322 -0.015692279 0.028421646 -0.0013892557 -0.10229208 -0.081617706 0.0074460227 0.0053043766
-0.090900004 0.016474668 -0.042557817 -0.050487526 -0.057480514 -0.01409263 -0.034887183 -0.056291573
-0.036018673 -0.04709003 -0.10495356 -0.09535967 -0.030366195 0.023041504 0.0040061804 -0.10503263
-0.051979557 -0.044980492 -0.024157055 -0.04575453 -0.04590814 -0.030081011 -0.05910555 0.015543364
-0.050153323 -0.0043635154 0.00088069175 -0.06543734 0.0009112385 -0.05836724 -0.0449502 -0.062461343
-0.01474029 0.00023907292 -0.060352966 -0.08340291 -0.07399204 -0.03568477 -0.02892644 -0.15296188
0.016712524 -0.023193972 0.016541352 -0.0505712 -0.03860885 -0.042051833 -0.03407056 -0.025475092
-0.020669935 -0.042871904 -0.051058266 -0.056578755 -0.042319965 -0.028336441 0.00027003285 -0.064556845
0.004172196 0.013747864 -0.05928102 -0.014081751 -0.026800454 -0.07755502 -0.029890133 -0.015988337

fc1.weight f4 [10, 128]
00000000: 1966 933d 6212 31be 8a96 1e3d 2c4a 1d3c
00000010: 4f41 0cbe 171d 4dbe 855c ac3d 1db9 863c
00000020: 71e8 26bd b5c7 12be b1d9 113d c6ae 0cbe
00000030: 1dd9 cf3c 1f50 87bd 892d 2abd da8f 18be
00000040: c690 fe3c 259c d93d 454e f1ba 3777 2bbe
00000050: f295 98be 8c08 59be 73b6 6fbe ef92 5cbe
00000060: 7fa5 833d c586 ef3d 8868 a83d 72ed cb3d
00000070: 2975 c33d 8d56 d13d dd0b f4bd c115 73bd
00000080: 0201 0f3e 2a14 d93c 6fc2 5cbd 0e93 ddbd
00000090: 9434 7cbe 988d 8cbe 7a13 c23d 0d5c 953d
000000a0: 67d9 42be 0dc1 bcbd d1f5 16bd f104 3c3e
000000b0: 5bd1 5b3d 9ac0 7abd 15fb 4b3d 429d 6d3d
000000c0: 57be ce3d 5eb6 e43d b2d7 013e b22d b73d
000000d0: f292 81be 7c45 21bc dbb7 29bd 79a8 52be
000000e0: f584 6cbc cc90 b2b9 3b76 b63b 006d e5bd
000000f0: 53ba c93b d266 32bd e86f 973d f092 c1bc
00000100: 68e1 39be c2c1 8cbd 6dda fdbc 4494 16bd
00000110: b766 24be 1e49 fd3d 3524 0c3e d631 57bc
00000120: fe78 963d 3dcc 5fbe b03a a03d 2097 45bd
00000130: 06a3 a7be dee3 ed3c 7e96 383d 065c 3fbd
00000140: 5f47 14bd 6ed7 923d ff4e 5f3d e437 853d
00000150: 0780 1abe a79a 0d3e 9f77 e3bd 1357 96bd
00000160: 21d8 e0bb 0e77 323c feca 05be 5cd9 12be
00000170: 7b48 ffbd 047a 35be 22fd 92bd effb 94be
00000180: 34ef 1d3e 93fc d03d 2b32 0ebe 21c1 efbd
00000190: 80d9 5bbd 82c5 2f3e bfaa d5be f7a6 7abe
000001a0: 4544 5abd d3d5 cabd e3c7 47be 96d7 80be
000001b0: f0e8 b7bd 7554 0d3e 67f0 80bd 91db 28bd
000001c0: e49d 2a3e e71a 213c e026 d5b9 1674 263e
000001d0: d81a eb3d ba8b a1be c449 603c 7f57 17be
000001e0: 807a f73c 5893 963d 9f3f 943c 26aa 9e3d
000001f0: 22a4 15be 787a 8fbc 5b50 e23c 0b35 29be
00000200: 5b40 34be c7c0 fa3d 3744 aabd 38c8 1839
00000210: ebeb 80bd 6867 98bd 4fee 313e e632 253c
00000220: ec7a a53b 6c1e edbc 4fb6 19be 1d71 c43d
00000230: 6d94 de3d 52ee ccbe b59d 97bc fe44 1c3e
00000240: 5195 e23d 07b9 b5be 3f17 f0bd 2070 5fbd
00000250: f74b 913d 1c82 5ebb 83a5 0b3e 066e 383d
00000260: c581 3cbe 0c0f 19bd 6b9e e6bd fdfd d5bc
00000270: df7a e9be 8981 35be 1496 f3bd 2e7c 393c
00000280: 87be f93d 0d16 ed3d a5fc 3fbd f646 afbd
00000290: 7992 9c3d e065 8ebd c4c9 fb3d ccbf 17be
000002a0: 8368 e2bd ae58 afbe e075 bebd 2bcb 81be
000002b0: 83a1 283e fc24 833d 0b6f 35bd f185 0b3e
000002c0: ffe5 a3be 5816 29be c441 bf3d a3bd a5be
000002d0: 9cfe 84be 5ef1 bbbb b8aa 22bd 66f1 8fbe
000002e0: 7127 9b3c 0faf d63d e74a 233e 10a7 123e
000002f0: 33ce 37bd 0b86 52bd 9547 fdbc eff3 f8bc
00000300: c03b 82be 97e2 9ebd 500b 473e 6da2 033e
00000310: 56d6 bfbe 28a7 2bbd c176 11be ffd7 ba3d
00000320: d8c8 093e d23f 39be b2e8 303d 23fe 233d
00000330: e4d6 76be afdc a3bd 6fae 3cbd decc 78be
00000340: 569d c73d 8707 bb3d ac56 7bbe f017 5bbd
00000350: ff9c 7b3d 9b17 efbe 44a3 81be 97e0 91bd
00000360: d5e9 2fbd 07fa 97be 4891 8bbe 6b11 32be
00000370: 90d9 893d b86f 44be bb4f 543d 5101 8bbd
00000380: 0c77 b9be f34a 4abe 68ce 32be f2f2 07be
00000390: c0cb 1e3e af1d 17bd f11e 6d3e ae0c 3bbe
000003a0: 22fc 83bb 35d4 09be 8b03 eabd afda b93d
000003b0: 453b 2d3d 29ce ec3c 37dc 8dbd 4032 41bd
000003c0: b2ef 17be 66bf 543d e018 68bc 9bf7 08be
000003d0: 4478 42be 5d89 b53d d30d 05bd 7fc8 aabd
000003e0: 12b4 773b fae4 f7bc 5606 1cbe 80b4 aebd
000003f0: aba0 563d 8e9b 57bd 7538 983c 5619 b9ba
0.07197208 -0.17292169 0.038717784 0.0096002035 -0.13696788 -0.20030628 0.08416084 0.01644569
-0.040749017 -0.14333995 0.035607997 -0.13738546 0.025372082 -0.06607079 -0.041547332 -0.14898625
0.031074893 0.10625485 -0.0018410167 -0.16744696 -0.298019 -0.21194667 -0.23409443 -0.21540426
0.0642805 0.11695627 0.08223063 0.099573985 0.09543831 0.102215864 -0.11916325 -0.059346918
0.13965228 0.026498873 -0.053896364 -0.10819064 -0.24629432 -0.27451777 0.09476371 0.07292948
-0.19028245 -0.09216509 -0.036855523 0.1836126 0.053666454 -0.061218835 0.049799997 0.0580113
0.10094898 0.11167596 0.12679937 0.089442626 -0.25307423 -0.0098432265 -0.041435104 -0.2057208
-0.014435996 -0.00034058688 0.0055682934 -0.11202431 0.006156245 -0.04355509 0.07394391 -0.023629636
-0.18152392 -0.06872894 -0.030987943 -0.03676249 -0.16054808 0.123674616 0.13685687 -0.01313444
0.07347296 -0.21855254 0.07823694 -0.048239827 -0.32741565 0.02903932 0.045065396 -0.04671862
-0.036200877 0.07169996 0.054518696 0.06504801 -0.15087901 0.13828526 -0.111068 -0.07340827
-0.006861702 0.010892643 -0.13065717 -0.14340729 -0.124649964 -0.17722327 -0.071771875 -0.2909846
0.1542328 0.10204425 -0.13886325 -0.11706758 -0.05367422 0.17165187 -0.4173183 -0.24477755
-0.053287763 -0.09904065 -0.19509844 -0.2516448 -0.08979976 0.13801749 -0.06295853 -0.04122502
0.16661793 0.009833074 -0.0004065549 0.16255221 0.114797294 -0.31551915 0.013689462 -0.14779471
0.03020978 0.07352322 0.018096743 0.07747297 -0.14613393 -0.017514452 0.027626207 -0.1652414
-0.17602675 0.122438006 -0.08313792 0.00014570437 -0.06294998 -0.07441598 0.17376064 0.010082936
0.005050054 -0.02894517 -0.15010951 0.09591887 0.10868154 -0.40025574 -0.018507818 0.15260693
0.11063636 -0.35492727 -0.11723184 -0.05455029 0.07094567 -0.0033952063 0.13637356 0.0450268
-0.18408878 -0.037367865 -0.112606846 -0.026122088 -0.45601556 -0.17725195 -0.118938595 0.011321111
0.12194543 0.115764715 -0.0468718 -0.085584566 0.07645125 -0.06953025 0.12294343 -0.14819258
-0.1105509 -0.34247345 -0.092998266 -0.25350317 0.16467862 0.064035386 -0.044295352 0.13625313
-0.3201141 -0.1651243 0.09338716 -0.32371244 -0.25975502 -0.0057355603 -0.03971359 -0.2811386
0.018939706 0.104826085 0.15946542 0.14321542 -0.04487438 -0.051397365 -0.030917922 -0.030389754
-0.2543621 -0.07758062 0.19437909 0.1285493 -0.37468213 -0.04190746 -0.14205457 0.09123229
0.13455522 -0.18090752 0.043190666 0.040037286 -0.24105412 -0.080010764 -0.04606479 -0.242969
0.09746806 0.09132295 -0.24544781 -0.053489625 0.06142902 -0.46697697 -0.25319874 -0.07122915
-0.04294761 -0.29682943 -0.27259278 -0.17389457 0.0673095 -0.19183242 0.05183385 -0.067873605
-0.36223638 -0.19755153 -0.1746155 -0.1327627 0.15507412 -0.036893543 0.23156334 -0.18266556
-0.0040278593 -0.13459857 -0.11426457 0.09074914 0.042292852 0.028906899 -0.06926768 -0.047167063
-0.1483753 0.051940344 -0.014166087 -0.13375704 -0.1899119 0.088640906 -0.032483887 -0.08339023
0.003779654 -0.030260552 -0.15236792 -0.085305214 0.05239932 -0.052638583 0.018581608 -0.001412193

fc1.bias f4 [10]
00000000: 1ebd b13e 9787 da3e 6b17 3fbe c2c8 cd3d
00000010: b600 f43c 1855 07bd bfc8 17be 5b11 8f3e
00000020: c56b ecbd 602e 50be
0.34714597 0.42681572 -0.18661277 0.10048057 0.029785495 -0.033040136 -0.14822672 0.2794293
-0.11543993 -0.2033019
